models/ppo_agent.pth (torch, 26648 bytes, 7 tensors)

shared_net.0.weight f4 [64, 15]
0.21507855 0.12173126 0.044454947 0.22415186 -0.033720523 -0.19967306 0.040375188 -0.014154674
-0.16716567 -0.03373951 -0.22089036 0.12437674 0.23904303 -0.20543514 0.0047588972 0.0901481
-0.025568811 -0.22871597 -0.02164873 0.022229258 -0.13195531 -0.011015779 -0.25852 -0.04780526
-0.101637386 0.027745131 0.033467114 0.055841677 -0.2047256 -0.2210966 -0.2679196 -0.20308194
-0.10722323 -0.18479775 -0.051480997 -0.00884341 -0.07920982 0.040080693 0.2439004 -0.23125513
0.2212066 -0.035637245 -0.16707563 0.15191701 -0.064364016 0.28830266 0.27210122 -0.21871527
-0.057159506 -0.24749167 0.048505124 0.21373194 0.077262305 -0.19253299 -0.093499705 0.2175732
0.14849831 0.06612847 0.13616274 0.12991743 -0.20372264 0.010375293 0.048061844 -0.15236987
0.21923202 0.034700423 0.23464441 -0.2692642 0.20766626 0.25152072 -0.040079366 0.022597022
-0.15683243 0.277718 0.19294874 0.14683837 -0.0775219 0.04939744 -0.20725167 0.13824219
0.017776018 0.23799185 0.2505063 0.21489626 -0.22217685 -0.24595895 0.114570305 0.22929998
0.17663544 0.028921606 0.2440729 0.17046753 -0.04109907 -0.15485926 -0.1434908 0.25303864
-0.036509655 -0.04775415 0.098595716 0.061535615 -0.18650945 0.07021862 -0.31831366 -0.29874042
-0.12957168 0.23206171 -0.1576463 0.16907796 -0.12303004 -0.25064707 -0.10966058 0.24797565
0.06875491 -0.043632068 0.061745748 0.118387125 -0.25930426 -0.24320935 -0.09397971 -0.044118166
-0.046087928 -0.050084602 0.1743827 0.13070889 0.22746766 0.06501957 -0.2188501 -0.15609455
-0.1824801 0.116784334 0.044858545 -0.14288628 -0.0012316366 0.15070912 -0.24463306 -0.23571564
-0.22283514 -0.23634543 -0.18676332 -0.07668582 -0.15642975 0.080113724 -0.11965099 -0.19756646
-0.013907759 -0.13820079 -0.06770621 -0.0034423098 -0.036696102 -0.096975274 0.14071588 0.09014936
-0.21175955 0.10848163 0.15100732 -0.22623853 0.23633304 -0.21430872 -0.19777879 0.17943674
0.22221445 -0.04917764 0.32004002 -0.059115525 0.075358875 -0.08414648 -0.24187559 0.08350194
-0.21761885 -0.07349461 -0.07569397 0.08740073 0.14978945 -0.08531189 -0.06053322 0.056051977
0.13515617 -0.1546404 -0.030403614 0.16388306 0.20432082 -0.23310757 -0.20435637 0.026181329
0.10415228 -0.0053802924 0.16567774 -0.024802206 -0.110524684 0.04924204 0.21472313 0.08832711
0.30321008 0.013752925 0.1581798 -0.08570378 0.17667684 -0.07607612 -0.030192705 -0.13760553
-0.12559383 -0.043298766 0.20401809 0.15038382 -0.08017322 0.09293451 -0.050279386 -0.12551965
0.1019259 0.21490474 -0.032295354 0.18469386 0.03166917 0.14493872 -0.098608516 -0.23764694
0.18390921 0.28960145 -0.115976356 -0.02425124 0.23488078 -0.26807112 0.009244932 -0.014823507
-0.17636813 -0.0695225 -0.024918433 0.13851099 -0.067179725 0.17366113 -0.104915954 0.058367062
-0.10628124 -0.13159989 -0.066845305 0.095042765 0.007913753 0.045435715 -0.18191025 0.21369918
0.20171778 0.029805124 0.24702401 0.15667212 0.06693355 0.19109122 -0.12262349 0.1301317
0.09921002 -0.16644818 -0.05842602 -0.28393888 -0.07773628 0.18335022 0.040220894 0.006080132
00000000: 8d3d 5c3e 3d4e f93d 6416 363d 1188 653e
00000010: 881e 0abd 1877 4cbe 7460 253d 01e9 67bc
00000020: 7a2d 2bbe 7132 0abd 1531 62be 3bb9 fe3d
00000030: b2c7 743e 975d 52be 86f0 9b3b 919f b83d
00000040: af75 d1bc 8534 6abe ad58 b1bc 221a b63c
00000050: 4b1f 07be 877b 34bc bc5c 84be 73cf 43bd
00000060: 4327 d0bd c249 e33c d014 093d 3eba 643d
00000070: 96a3 51be 2667 62be c22c 89be b6f4 4fbe
00000080: da97 dbbd 9f3b 3dbe bddd 52bd f3e3 10bc
00000090: c238 a2bd a72b 243d 07c1 793e 25ce 6cbe
000000a0: fc83 623e 5cf8 11bd e015 2bbe 2290 1b3e
000000b0: 48d1 83bd 689c 933e da50 8b3e e5f6 5fbe
000000c0: 1620 6abd 756e 7dbe 4fad 463d 8cdc 5a3e
000000d0: b33b 9e3d 5e27 45be c67c bfbd 82cb 5e3e
000000e0: f10f 183e 5d6e 873d 3f6e 0b3e 1309 053e
000000f0: ab9c 50be 22fd 293c 7fdc 443d d906 1cbe
00000100: 5c7e 603e 0822 0e3d a046 703e ffdc 89be
00000110: 77a6 543e 53c7 803e 432a 24bd 641d b93c
00000120: ae98 20be 0e31 8e3e 5b94 453e cc5c 163e
00000130: cdc3 9ebd f854 4a3d c839 54be 5c8f 0d3e
00000140: 039f 913c 23b4 733e 5d42 803e c40d 5c3e
00000150: 5482 63be aadc 7bbe d6a3 ea3d 9dcd 6a3e
00000160: ecdf 343e 01ed ec3c 3fee 793e 0a8f 2e3e
00000170: 8057 28bd 6d93 1ebe 41ef 12be 488e 813e
00000180: 268b 15bd db99 43bd 8dec c93d c50c 7c3d
00000190: 55fc 3ebe c8ce 8f3d 02fa a2be 81f4 98be
000001a0: 70ae 04be 96a1 6d3e 086e 21be c622 2d3e
000001b0: 2cf7 fbbd d054 80be ba95 e0bd 54ed 7d3e
000001c0: 60cf 8c3d 8ab7 32bd 1ce9 7c3d f374 f23d
000001d0: 87c3 84be df0b 79be 6f78 c0bd 40b5 34bd
000001e0: b2c6 3cbd 8325 4dbd 6191 323e 8dd8 053e
000001f0: 48ed 683e fb28 853d 3e1a 60be 40d7 1fbe
00000200: 10dc 3abe a02c ef3d 98bd 373d c850 12be
00000210: de6e a1ba 7e53 1a3e 1781 7abe 715f 71be
00000220: e52e 64be 8904 72be e23e 3fbe 750d 9dbd
00000230: 1f2f 20be aa12 a43d 940b f5bd dd4e 4abe
00000240: 5fdd 63bc 8284 0dbe 8ea9 8abd 6098 61bb
00000250: a74e 16bd f99a c6bd d317 103e 3aa0 b83d
00000260: 7fd7 58be 9e2b de3d aaa1 1a3e 13ab 67be
00000270: 4a01 723e bf73 5bbe 8686 4abe 44be 373e
00000280: 2f8c 633e 7e6e 49bd 49dc a33e 1f23 72bd
00000290: c155 9a3d fd54 acbd 3cae 77be 1103 ab3d
000002a0: 7ad7 5ebe 5884 96bd 7105 9bbd 27ff b23d
000002b0: 6862 193e 00b8 aebd aff1 77bd c296 653d
000002c0: 6166 0a3e 0e5a 1ebe 0011 f9bc f6d0 273e
000002d0: 7a39 513e c0b3 6ebe cc42 51be 3a7a d63c
000002e0: ca4d d53d 2a4d b0bb 6da7 293e ff2d cbbc
000002f0: c45a e2bd 05b2 493d 61e0 5b3e d8e4 b43d
00000300: 5a3e 9b3e f353 613c e3f9 213e 7785 afbd
00000310: c6ea 343e cccd 9bbd b156 f7bc 77e8 0cbe
00000320: ab9b 00be 0c5a 31bd 1eea 503e 37fe 193e
00000330: db31 a4bd 7354 be3d c2f1 4dbd 3988 00be
00000340: 87be d03d fd0f 5c3e 2248 04bd 6320 3d3e
00000350: 88b7 013d d16a 143e 43f3 c9bd b859 73be
00000360: b252 3c3e a446 943e 0385 edbd 89aa c6bc
00000370: 9684 703e 9e40 89be 0e78 173c 4bde 72bc
00000380: d999 34be d061 8ebd be21 ccbc d3d5 0d3e
00000390: 8695 89bd 39d4 313e 2dde d6bd 4d12 6f3d
000003a0: fba9 d9bd 1fc2 06be 31e6 88bd c8a5 c23d
000003b0: b0a8 013c cd1a 3a3d ae46 3abe f5d3 5a3e
000003c0: 1b8f 4e3e e029 f43c ddf3 7c3e a86e 203e
000003d0: 7514 893d 6bad 433e 0622 fbbd 3f41 053e
000003e0: 9f2e cb3d 6471 2abe 1f50 6fbd 7060 91be
000003f0: 3334 9fbd 29c0 3b3e aabe 243d d83b c73b

shared_net.0.bias f4 [64]
-0.26063886 -0.047608342 -0.180871 0.16832697 -0.2561885 0.014795958 0.29144484 0.072751924
0.11930339 -0.28753608 -0.25148052 -0.028023496 -0.22700208 0.14581898 0.22504146 0.1120064
0.257919 0.16356157 0.13895513 -0.13357645 -0.09797219 0.029290147 -0.08396503 0.19527279
-0.04340571 -0.17246936 -0.03990194 -0.026488164 0.16272882 -0.27705288 -0.054442666 -0.092267446
0.023329385 0.23640788 0.22239277 -0.21625672 0.13547026 -0.05715853 -0.07965602 0.08810053
-0.08335582 0.2516845 -0.26848954 -0.08136049 0.20970412 0.24690145 0.10192935 -0.23382513
0.2904634 -0.08169968 -0.05211758 0.01588607 -0.14938022 0.1535985 0.16801384 0.13985549
-0.14416595 -0.27484787 0.059855208 -0.2612764 0.03791965 -0.06254445 -0.2311374 -0.2554247
00000000: 7572 85be f700 43bd 3f36 39be e85d 2c3e
00000010: 242b 83be bf6a 723c 4238 953e f6fe 943d
00000020: 5655 f43d ee37 93be 0ec2 80be 8891 e5bc
00000030: 3c73 68be 9251 153e 4571 663e 9d63 e53d
00000040: f60d 843e af7c 273e 414a 0e3e 44c8 08be
00000050: a5a5 c8bd e4f1 ef3c dcf5 abbd 97f5 473e
00000060: 30ca 31bd cf9b 30be 3770 23bd b5fd d8bc
00000070: 62a2 263e e0d9 8dbe 46ff 5ebd b7f6 bcbd
00000080: 441d bf3c e814 723e eeba 633e 6772 5dbe
00000090: b7b8 0a3e 101f 6abd b222 a3bd 0d6e b43d
000000a0: 75b6 aabd cadc 803e 7677 89be 54a0 a6bd
000000b0: adbc 563e bcd3 7c3e 56c0 d03d db6f 6fbe
000000c0: 9eb7 943e 2952 a7bd 3e79 55bd 8123 823c
000000d0: 21f7 18be ed48 1d3e d20b 2c3e 4736 0f3e
000000e0: 3da0 13be dcb8 8cbe bc2a 753d 05c6 85be
000000f0: a351 1b3d 4e17 80bd 48af 6cbe 07c7 82be

shared_net.2.weight f4 [64, 64]
0.14742242 0.12960391 -0.04837268 -0.10636767 0.0674273 0.08007892 -0.13944845 -0.049672067
0.077527404 0.13336496 -0.06400412 -0.12915996 -0.050625954 -0.10180638 -0.054014042 0.036028
-0.13894972 -0.007813579 0.100332156 0.038474414 -0.09508832 -0.13932109 -0.12885402 -0.08835722
-0.010371952 0.0804567 -0.07093077 0.05108862 -0.060995046 0.123389706 0.011544303 0.14440288
-0.050303504 -0.12735261 -0.0868493 0.07850384 0.03574773 0.088395454 -0.025221594 0.0140079325
0.041650068 -0.0063026473 0.06245476 0.091547966 -0.09573016 -0.13646896 0.08231694 0.039256457
0.0075037847 0.09506611 -0.101783894 0.043189123 0.12856477 0.038319103 -0.06968071 0.076872386
-0.09348401 0.13397343 -0.052187584 -0.13669293 -0.056120235 -0.11341017 0.0858721 -0.045920506
0.0069035413 -0.017432213 0.06467435 -0.0029429006 -0.02568071 0.07460239 0.11066032 0.0791042
0.119063206 -0.0786013 -0.123335846 -0.0894721 -0.07478758 0.08806427 0.12922081 -0.078407474
0.060244393 0.076342076 0.04469446 -0.07753669 0.118787676 0.036996093 0.13210595 0.013465939
0.12589917 -0.101259425 0.088289835 -0.0993297 -0.003162542 -0.098736696 0.033365913 0.0521258
-0.11733505 -0.018304847 -0.019573525 0.009024736 -0.03850266 -0.13784093 0.11748531 -0.06182356
0.0826402 0.05435609 0.062714174 -0.06746561 0.03120354 0.04370908 0.16213867 -0.05137662
-0.0033293297 0.030226344 -0.07407117 0.08747451 -0.15605162 0.07847645 0.027718998 0.025261037
-0.111278765 0.0051428815 0.088854894 0.038847722 0.02691665 0.03880547 -0.110379435 0.064711995
0.14410694 0.07609884 0.060929075 -0.0054006726 0.010260371 -0.02307552 -0.060454026 0.002287492
-0.030209143 0.017898053 0.08541519 0.06090279 0.122416265 -0.12636721 -0.15442295 -0.057273388
-0.0018631201 -0.012979665 -0.10055458 0.082960315 0.034740873 0.04059548 -0.0173633 0.1313576
-0.024767956 -0.07016158 0.055637207 0.11486767 -0.08870132 0.12390771 0.05166651 -0.0062641674
-0.04685467 0.041752268 0.069337636 -0.01837852 0.04753809 0.13764444 0.011470855 -0.042125516
0.07186878 -0.114887744 -0.08500805 0.014372804 -0.14683583 -0.06380742 -0.009884006 -0.085797355
-0.09460271 -0.10397183 -0.086680405 -0.10357403 -0.028532311 0.002374675 0.0034331225 -0.01064708
0.105649374 0.053202007 -0.026105361 -0.0090061445 -0.06399281 -0.0074434024 0.10547867 0.055581056
0.059596524 0.06667496 -0.05793702 -0.040495995 0.12200148 0.11846975 -0.06596979 -0.107978225
-0.05682394 -0.015019786 0.08253037 0.088008225 0.060179632 -0.041662913 -0.03464393 -0.08721102
-0.065110356 -0.11376567 0.026489697 0.10398358 -0.11162979 -0.114945635 -0.036809843 0.089087
-0.017427409 0.041289285 0.07811119 0.040698867 0.015415361 0.0061865253 -0.10493114 -0.037846662
0.05500172 -0.08128609 -0.0052491617 -0.11843309 0.06428384 0.0028744738 0.0077867275 0.111857764
-0.003832512 -0.09164639 -0.08881865 0.058596503 -0.11125515 0.004058783 -0.023401326 0.02632248
-0.02109406 0.11195952 0.03621187 -0.077407114 0.023717187 -0.122177355 -0.013951263 -0.050080128
0.11839735 0.059065092 -0.033686116 -0.07281576 -0.10882866 0.019472146 0.061468363 0.06683454
00000000: e7f5 163e e3b6 043e 6e22 46bd 4bd7 d9bd
00000010: 5317 8a3d 6b00 a43d 93cb 0ebe f074 4bbd
00000020: b0c6 9e3d d390 083e 9814 83bd 8242 04be
00000030: 295d 4fbd dd7f d0bd d43d 5dbd 1992 133d
00000040: d648 0ebe 8704 00bc f27a cd3d 5997 1d3d
00000050: aabd c2bd 30aa 0ebe 4ff2 03be a1f4 b4bd
00000060: 1fef 29bc 7bc6 a43d 2744 91bd 4d42 513d
00000070: f1d5 79bd beb3 fc3d 5124 3d3c 59de 133e
00000080: 0c0b 4ebd b968 02be 0cde b1bd 9fc6 a03d
00000090: 366c 123d ad08 b53d 849d cebc 8781 653c
000000a0: 4399 2a3d 7086 cebb 90d0 7f3d 807d bb3d
000000b0: 2d0e c4bd 85be 0bbe c995 a83d 61cb 203d
000000c0: 4fe2 f53b 05b2 c23d 1374 d0bd 14e7 303d
000000d0: 7ca6 033e 7ef4 1c3d c3b4 8ebd 456f 9d3d
000000e0: 8b74 bfbd 5530 093e a6c2 55bd 3bf9 0bbe
000000f0: 55de 65bd 9743 e8bd b6dd af3d 2417 3cbd
00000100: 1a37 e23b 00ce 8ebc fc73 843d aedd 40bb
00000110: 5a60 d2bc 23c9 983d e1a1 e23d 6201 a23d
00000120: 69d7 f33d b8f9 a0bd 8197 fcbd 263d b7bd
00000130: 3b2a 99bd 0a5b b43d 7652 043e 1994 a0bd
00000140: d3c2 763d 3c59 9c3d 8a11 373d 8ecb 9ebd
00000150: f446 f33d 3789 173d c846 073e 3ea0 5c3c
00000160: b6eb 003e 1a61 cfbd 4dd1 b43d 5f6d cbbd
00000170: a642 4fbb 7736 cabd b2aa 083d dd81 553d
00000180: 5c4d f0bd 0cf4 95bc a858 a0bc 7cdc 133c
00000190: f7b4 1dbd 2c26 0dbe 239c f03d b43a 7dbd
000001a0: 443f a93d 7ea4 5e3d 4a70 803d 692b 8abd
000001b0: 919e ff3c 4b08 333d ae07 263e 4a70 52bd
000001c0: e230 5abb 3d9d f73c a0b2 97bd d625 b33d
000001d0: ffcb 1fbe 43b8 a03d f412 e33c 3cf0 ce3c
000001e0: 1fe6 e3bd 9e85 a83b 8ef9 b53d ca1e 1f3d
000001f0: 4e80 dc3c 7cf2 1e3d 9d0e e2bd b987 843d
00000200: c590 133e b5d9 9b3d c490 793d 20f8 b0bb
00000210: 1d1b 283c df08 bdbc a49e 77bd bfe9 153b
00000220: 2a79 f7bc f09e 923c 29ee ae3d 3475 793d
00000230: 61b5 fa3d 6866 01be 0d21 1ebe 8097 6abd
00000240: f033 f4ba a9a8 54bc 8fef cdbd 19e7 a93d
00000250: 724c 0e3d 7247 263d 7b3d 8ebc 9b82 063e
00000260: 2be6 cabc e0b0 8fbd d7e3 633d be3f eb3d
00000270: 0aa9 b5bd 53c3 fd3d 43a0 533d a543 cdbb
00000280: afea 3fbd 6d04 2b3d e400 8e3d 8d8e 96bc
00000290: 4db7 423d aaf2 0c3e 41f0 3b3c ce8b 2cbd
000002a0: f02f 933d 444a ebbd b318 aebd e97b 6b3c
000002b0: 225c 16be 77ad 82bd 87f0 21bc 86b6 afbd
000002c0: 11bf c1bd 2fef d4bd 7f85 b1bd 9f1e d4bd
000002d0: 98bc e9bc 6fa0 1b3b 3dfe 603b 1771 2ebc
000002e0: b35e d83d 59ea 593d e9da d5bc 828e 13bc
000002f0: aa0e 83bd c9e7 f3bb 3305 d83d f6a8 633d
00000300: 7c1b 743d e28c 883d 5e4f 6dbd 21df 25bd
00000310: e9db f93d 45a0 f23d 2b1b 87bd b023 ddbd
00000320: 38c0 68bd 8c15 76bc af05 a93d a83d b43d
00000330: eb7e 763d bba6 2abd cbe6 0dbd b19b b2bd
00000340: 9458 85bd fafd e8bd ec00 d93c 58f5 d43d
00000350: 299e e4bd 9e68 ebbd ebc5 16bd 3f73 b63d
00000360: edc3 8ebc f41e 293d c2f8 9f3d dbb3 263d
00000370: b690 7c3c 56b8 ca3b 23e6 d6bd 1a05 1bbd
00000380: 7c49 613d 5279 a6bd 2901 acbb 0c8d f2bd
00000390: 3fa7 833d ab61 3c3b ce27 ff3b af15 e53d
000003a0: e22a 7bbb 1ab1 bbbd 8de6 b5bd e302 703d
000003b0: bdd9 e3bd 8aff 843b 23b4 bfbc 3ea2 d73c
000003c0: 73cd acbc 084b e53d e652 143d 9f87 9ebd
000003d0: 8c4a c23c 1f38 fabd d793 64bc d220 4dbd
000003e0: 4f7a f23d 3dee 713d 74fa 09bd 6e20 95bd
000003f0: 8fe1 debd 0d84 9f3c 40c6 7b3d 8ce0 883d

shared_net.2.bias f4 [64]
-0.122986086 0.097392015 -0.15140472 0.011191872 -0.07760981 -0.08759691 0.053991485 0.12048512
-0.08300952 0.07691954 -0.12806925 -0.052657668 -0.076286964 0.12261431 0.058697548 -0.12325086
0.028802743 -0.08278849 -0.10496191 0.02364509 0.022698272 0.01883659 -0.05084424 0.08692098
0.023004292 -0.111883506 -0.11141023 0.003005805 0.11378644 0.03348686 0.09354409 0.03869922
0.038876545 0.060484704 0.06720791 0.008054679 0.023364734 0.038127884 -0.004678863 0.1271215
0.09233653 -0.08454654 -0.012980507 0.07389017 0.04145497 -0.07451873 0.0034102276 0.004816256
-0.05861417 -0.060135774 -0.13633001 -0.13888532 -0.09082664 0.036060017 -0.116644785 0.07453697
-0.03165548 0.14317177 0.06874844 -0.0646504 0.09032738 -0.033303425 -0.00043143917 0.04477168
00000000: 21e0 fbbd 7775 c73d d709 1bbe 1d5e 373c
00000010: e4f1 9ebd 0266 b3bd 2d26 5d3d e7c0 f63d
00000020: e500 aabd fe87 9d3d 9624 03be 91af 57bd
00000030: 573c 9cbd 361d fb3d d76c 703d f26a fcbd
00000040: bbf3 eb3c 038d a9bd 45f6 d6bd 59b3 c13c
00000050: baf1 b93c 314f 9a3c 0d42 50bd a003 b23d
00000060: 7f73 bc3c 2e23 e5bd 0c2b e4bd 0afd 443b
00000070: dd08 e93d 8529 093d 0b94 bf3d 1383 1e3d
00000080: 033d 1f3d cfbe 773d 4da4 893d c6f7 033c
00000090: 6667 bf3c fc2b 1c3d 2651 99bb 232c 023e
000000a0: ef1a bd3d bd26 adbd 31ac 54bc bb53 973d
000000b0: b0cc 293d 479d 98bd 207e 5f3b afd1 9d3b
000000c0: 6915 70bd ee50 76bd 189a 0bbe f437 0ebe
000000d0: 5103 babd abb3 133d 76e3 eebd d7a6 983d
000000e0: 2da9 01bd 9f9b 123e fbcb 8c3d 6e67 84bd
000000f0: 90fd b83d 2c69 08bd c932 e2b9 8262 373d

actor_head.0.weight f4 [9, 64]
-0.019773372 0.13841313 -0.15089343 0.08501232 -0.029636214 -0.0050646993 0.08944675 -0.03253559
-0.028587911 -0.09944135 -0.06501467 0.0043293773 -0.07399371 -0.035103444 0.16003962 -0.046993405
0.02045964 -0.11712636 0.044716563 0.034117337 0.060901448 -0.0047759665 -0.048352335 0.038046174
0.05408506 -0.028608548 0.0061292946 0.083168976 0.036458448 -0.01284556 0.096704856 0.09916828
0.15770037 0.019246446 -0.0693149 -0.1278232 0.0738032 -0.073273696 -0.05302689 -0.037365694
0.06499237 0.023502983 -0.06724519 -0.08007673 -0.011615753 -0.09582242 -0.027542904 0.06631154
-0.026991932 0.05829201 -0.10060476 -0.049559403 -0.08026493 0.07000181 0.07294536 0.11334746
0.052255876 -0.037960544 -0.039989673 0.012889657 -0.03716678 -0.08899469 -0.12346082 0.0728967
-0.030661836 -0.061200395 0.052620444 0.009544723 -0.008712195 -0.03899848 -0.10597344 0.05297986
0.024249744 -0.012292069 -0.010340746 -0.037094567 0.021374881 -0.09958437 0.019997543 -0.020682277
0.016891362 0.10746734 -0.02863508 -0.091881365 0.025503993 0.12657551 0.06772968 0.11794033
-0.12103936 0.0032764794 0.12609088 0.07814211 -0.13326055 -0.015130093 0.06793975 -0.11114636
-0.11917784 0.12932074 0.08206894 -0.0052717435 0.09782345 -0.014786943 -0.06399556 0.0023726556
0.02415532 -0.042919554 -0.09675224 0.056652956 0.0065530757 0.031015906 0.083281144 -0.09128978
0.050453726 0.03412188 0.11707252 0.098205015 0.018040659 0.090422794 0.09804223 0.050272655
0.051641446 -0.05632608 -0.06632337 0.02482789 -0.1253772 0.036907822 -0.11141078 0.026120434
-0.019218 0.03843998 0.032053877 -0.029953253 -0.0734493 -0.13699372 -0.112688616 0.02903241
-0.07351303 -0.092841856 0.15162684 0.03664209 -0.020675054 -0.053855624 0.06271698 0.11568561
0.1238886 -0.08391033 0.018317051 -0.09277784 -0.09045449 -0.08061343 -0.03215737 -0.0062169465
0.010699096 0.06849479 0.11522047 -0.0806486 -0.04526944 -0.08624883 -0.09871257 -0.05735667
-0.026049003 0.00829161 -0.0045590075 -0.08775354 0.12437074 0.07685694 -0.010909225 0.095990434
-0.10889563 0.12485467 0.115521505 -0.12361894 0.07756631 0.1451721 0.054228853 0.008957167
0.108758524 0.086029254 0.15327153 -0.011421694 -0.10292686 0.1206866 -0.059194062 0.015210911
0.0713406 -0.08668133 -0.082403556 0.04087578 0.08129368 0.07787982 0.013491599 -0.06352471
0.058891084 -0.06057555 0.008965121 -0.0780281 -0.08304732 -0.14391007 -0.004229268 0.08318161
-0.0040562223 0.08849531 -0.042372733 0.10061298 -0.04477673 0.021357097 0.043712236 -0.055348407
0.14825784 0.037142754 0.13383254 -0.0701844 0.13324586 -0.098101236 -0.046436157 0.060067903
-0.022734072 0.05799877 0.11325747 -0.009269762 -0.09694034 -0.11668581 -0.10979562 -0.10512711
-0.1191579 0.029041788 0.12059424 -0.07538198 0.019980986 -0.09423181 -0.046289 -0.012750704
-0.035222687 -0.032308556 -0.08448911 -0.046449117 0.08757679 -0.01589372 0.020986916 -0.09077442
-0.018249027 -0.08451622 0.03464785 -0.021596253 -0.07804719 0.093139954 0.0797423 -0.101766765
-0.014684619 -0.06928666 -0.11562157 0.15951382 0.094278015 -0.07729215 -0.009877576 0.06839535
00000000: c4fb a1bc 2cbc 0d3e cf83 1abe f01a ae3d
00000010: a5c7 f2bc c7f5 a5bb dc2f b73d 0a44 05bd
00000020: 3231 eabc e8a7 cbbd 6926 85bd 73dd 8d3b
00000030: 048a 97bd a1c8 0fbd 6de1 233e 287c 40bd
00000040: fa9a a73c f2df efbd b728 373d 9fbe 0b3d
00000050: cc73 793d b67f 9cbb 190d 46bd 4ed6 1b3d
00000060: 4c88 5d3d 795c eabc 40d8 c83b 7f54 aa3d
00000070: 7455 153d 2f76 52bc 320d c63d bd18 cb3d
00000080: 357c 213e b9aa 9d3c f8f4 8dbd 16e4 02be
00000090: 2226 973d 8510 96bd b932 59bd c50c 19bd
000000a0: b81a 853d 5489 c03c d9b7 89bd 45ff a3bd
000000b0: 0050 3ebc 8c3e c4bd a8a1 e1bc 58ce 873d
000000c0: 2f1e ddbc 9ac3 6e3d de09 cebd cdfe 4abd
000000d0: f161 a4bd 1c5d 8f3d 6064 953d b722 e83d
000000e0: 420a 563d 847c 1bbd 36cc 23bd 242f 533c
000000f0: 323c 18bd d942 b6bd 07d9 fcbd dd4a 953d
00000100: 882e fbbc 44ad 7abd 8988 573d 7861 1c3c
00000110: 98bd 0ebc dfbc 1fbd 9a08 d9bd 6901 593d
00000120: 66a7 c63c ad64 49bc 3b6c 29bc 79f0 17bd
00000130: 601a af3c e4f2 cbbd e3d1 a33c e16d a9bc
00000140: c15f 8a3c d617 dc3d 1e94 eabc 4c2c bcbd
00000150: c0ed d03c 039d 013e dcb5 8a3d b38a f13d
00000160: 7ce3 f7bd 34ba 563b f81d 013e f808 a03d
00000170: 7475 08be 36e4 77bc ff23 8b3d b4a0 e3bd
00000180: 8313 f4bd a86c 043e c313 a83d 97be acbb
00000190: a957 c83d ef44 72bc 1b10 83bd 8e7e 1b3b
000001a0: 61e1 c53c 6acc 2fbd 0a26 c6bd ee0c 683d
000001b0: 2fbb d63b 1215 fe3c 4e8f aa3d 23f6 babd
000001c0: 91a8 4e3d 62c3 0b3d b8c3 ef3d b61f c93d
000001d0: 01ca 933c 962f b93d 5dca c83d b3ea 4d3d
000001e0: fb85 533d 2db6 66bd 8cd4 87bd dc63 cb3c
000001f0: e162 00be a82c 173d 562b e4bd 85fa d53c
00000200: 116f 9dbc 3e73 1d3d ed4a 033d 8660 f5bc
00000210: 966c 96bd 1548 0cbe 4ac9 e6bd 60d5 ed3c
00000220: 008e 96bd df23 bebd 1144 1b3e 0416 163d
00000230: bb5e a9bc b797 5cbd c371 803d 94ec ec3d
00000240: 4eb9 fd3d 2ed9 abbd a40d 963c 4f02 bebd
00000250: 3440 b9bd a718 a5bd 72b7 03bd 87b7 cbbb
00000260: 434b 2f3c ff46 8c3d b6f8 eb3d 182b a5bd
00000270: 736c 39bd 3aa3 b0bd d129 cabd d4ee 6abd
00000280: b864 d5bc 88d9 073c ba63 95bb 21b8 b3bd
00000290: 16b6 fe3d 2c67 9d3d 9bbc 32bc a296 c43d
000002a0: ac04 dfbd ceb3 ff3d 8a96 ec3d ed2b fdbd
000002b0: 16db 9e3d ffa7 143e 131f 5e3d 15c1 123c
000002c0: cabc de3d 1b30 b03d 36f3 1c3e 0f22 3bbc
000002d0: 51cb d2bd 892a f73d 7975 72bd 2f37 793c
000002e0: 051b 923d fb85 b1bd 32c3 a8bd 5d6d 273d
000002f0: 4d7d a63d 747f 9f3d de0b 5d3c 3e19 82bd
00000300: c737 713d 111e 78bd 71e2 123c 32cd 9fbd
00000310: b714 aabd 295d 13be ac95 8abb 1f5b aa3d
00000320: 0fea 84bb 073d b53d 088f 2dbd 2e0e ce3d
00000330: ce67 37bd 14f5 ae3c 9a0b 333d 03b5 62bd
00000340: e7d0 173e 0023 183d 660b 093e d7bc 8fbd
00000350: 9a71 083e 4de9 c8bd d733 3ebd c309 763d
00000360: ce3c babc 1e90 6d3d 88f3 e73d 33e0 17bc
00000370: a888 c6bd f8f8 eebd 87dc e0bd e24c d7bd
00000380: 0f09 f4bd 0be9 ed3c 1dfa f63d de61 9abd
00000390: 2aaf a33c 9bfc c0bd 8999 3dbd 54e8 50bc
000003a0: aa45 10bd fa55 04bd a008 adbd 6e41 3ebd
000003b0: 765b b33d 8c33 82bc c1ec ab3c f0e7 b9bd
000003c0: fc7e 95bc d716 adbd e7ea 0d3d a0ea b0bc
000003d0: 35d7 9fbd 29c0 be3d ee4f a33d 186b d0bd
000003e0: c297 70bc 2ae6 8dbd 00cb ecbd 9757 233e
000003f0: d514 c13d 594b 9ebd 8ed5 21bc dc12 8c3d

actor_head.0.bias f4 [9]
0.044492837 0.0066569042 0.0075577064 -0.05028982 0.080607176 0.01224419 -0.0700471 -0.14026614
0.026814135
00000000: 1f3e 363d 2922 da3b a3a6 f73b b3fc 4dbd
00000010: 6015 a53d db9b 483c db74 8fbd eda1 0fbe
00000020: 51a9 db3c

critic_head.weight f4 [1, 64]
0.12438699 -0.10022612 0.16458519 0.15763037 0.1622038 -0.004420615 -0.060220778 -0.16221488
-0.09436084 0.07530417 0.1253141 0.090771444 0.16894868 -0.116633974 -0.16751182 0.04556606
0.034372415 0.06960822 -0.07356552 -0.06514618 0.15430558 0.12984565 0.15808901 0.11466646
-0.005253802 0.09039801 -0.0065956754 -0.020411275 -0.09647654 -0.15121597 -0.033888225 -0.08452627
-0.07554932 0.10612059 0.09308061 0.0672309 0.120641716 0.15847121 -0.041242614 -0.09470792
-0.050104596 0.13650437 0.13373952 -0.08118822 0.06898965 0.06397636 -0.13667478 -0.04470526
0.07722835 -0.064413294 0.115063846 0.06819054 -0.021149438 0.16035949 0.16473074 -0.059180338
-0.1473111 0.00889602 0.015347947 0.15555 -0.15027203 -0.08631096 -0.14950246 -0.10995013
00000000: 9bbe fe3d 5a43 cdbd 0589 283e db69 213e
00000010: c118 263e ceda 90bb 10aa 76bd a81b 26be
00000020: 4240 c1bd 1339 9a3d 5752 003e 61e6 b93d
00000030: e200 2d3e cbdd eebd 3888 2bbe 7aa3 3a3d
00000040: 17ca 0c3d c18e 8e3d 85a9 96bd 5c6b 85bd
00000050: 4802 1e3e 42f6 043e 16e2 213e 40d6 ea3d
00000060: 1628 acbb 9822 b93d 8920 d8bb 8c35 a7bc
00000070: 7e95 c5bd 5cd8 1abe 61ce 0abd 1c1c adbd
00000080: 9ab9 9abd c055 d93d 0ca1 be3d 5bb0 893d
00000090: 0113 f73d 4746 223e 04ee 28bd 3af6 c1bd
000000a0: 7a3a 4dbd cdc7 0b3e 03f3 083e 0246 a6bd
000000b0: 724a 8d3d 0a06 833d 79f4 0bbe dd1c 37bd
000000c0: e629 9e3d 1eeb 83bd 98a6 eb3d 7ba7 8b3d
000000d0: 9641 adbc 4735 243e 2daf 283e 1567 72bd
000000e0: b9d8 16be 9dc0 113c f575 7b3c 8048 1f3e
000000f0: e9e0 19be cdc3 b0bd 2c17 19be 892d e1bd
